jupyter_notebooks/LDA_Model.pkl_02.npy (npy, 2248 bytes, 1 tensors)

array f8 [271, 1]
0	0xbd716385baec37b4	-9.884365289512933e-13
1	0x3da974be18978b72	1.1576060221940498e-11
2	0x3f1c9c1dbe2493aa	0.0001091378358393918
3	0xbeffba5f76a77ae0	-3.0258196980765813e-05
4	0xbfc8704b72f6503c	-0.19092696298014455
5	0xbf47cca85c9c7320	-0.0007263013914982942
6	0xc00157d5c0f5edea	-2.16788817167775
7	0xbffed7e2e938608a	-1.9277066335835422
8	0x3f4306c5f724cf93	0.0005806414249378437
9	0xbff6eca23549397a	-1.4327718812452006
10	0x3db8904df74abae7	2.2340545607680293e-11
11	0x3f86667f22e9fb3f	0.010937684300413529
12	0xbf7652c133d883a7	-0.0054500147794280035
13	0xc26180e66742458d	-601416219154.1735
14	0x3ed34bd3bcffc590	4.600572495393014e-06
15	0x3f7e6c310acd11a7	0.007427398272572472
16	0x3f8906cfee99b21e	0.012220024556165273
17	0x3fb404fa46bb1519	0.07820095278573937
18	0x3fce453ab0d2e56e	0.23648770936942348
19	0xbfa1896a705df9c5	-0.034251524178205574
20	0x3fa0ce01fba0440a	0.032821714368886104
21	0x3fc525529004914a	0.16520149261590183
22	0x3f81f3d911101c80	0.008765884240359734
23	0x3dc0915929076866	3.0136592118181875e-11
24	0x3f613e0e349359d4	0.002104785675878443
25	0xbf317077aa9a0108	-0.0002661029962851701
26	0xc233a970403848b2	-84447084600.28397
27	0x3f1fb3e527a5bd2c	0.00012093626165720202
28	0xbf9a81179c8bdd2a	-0.02588307278616956
29	0x3f96d18128f6e1ba	0.022283571362750478
30	0xbfb266807ae56306	-0.07187655449287086
31	0x3f9c2d323522ca04	0.027516159527928977
32	0xbf86f9a2b40808d0	-0.011218329543229905
33	0x3f9ff282f6c94216	0.03119854575408184
34	0xbfc30a8e1f712b0d	-0.14875961814171781
35	0x3fb75ce281138ff0	0.09126105929641404
36	0xbd7ee1b7224435e8	-1.7554214452296646e-12
37	0x3f45e949b6913f1b	0.0006686792304524154
38	0xbf20da82df19ed40	-0.0001285824542270695
39	0xc21b6d29c63e27d5	-29448892815.5389
40	0x3f000ed620ca029c	3.062811820076403e-05
41	0xbf8db5ef7a2785e0	-0.014507170596462282
42	0x3fa232b7918d9cf3	0.03554319049617929
43	0x3faf1ffbbd6f94c0	0.060790888666625076
44	0x3fbd1fb8ec9f03fc	0.11376529480823189
45	0x3f886622704c68a8	0.011913556148602858
46	0xbfb230137f8d018f	-0.07104608406098677
47	0x3fc959bb51eef752	0.19805089474351206
48	0xbfd7657b8484b38f	-0.3655689996838242
49	0x3dbf36ee66b814a6	2.8389490775525938e-11
50	0xbef0555f842749fe	-1.5576828681871165e-05
51	0xbf3d2fde9e88cdce	-0.00044535813370602257
52	0x41b402e6defbf79c	335734494.98424697
53	0xbf100e1e9b45d4be	-6.124555404148337e-05
54	0x3f9bc606c229e800	0.02712259826737551
55	0xbf719bf2f12ad204	-0.004299115173740823
56	0xbfb5b66c91e017fd	-0.08481482087526611
57	0x3fc74b31eb3010f8	0.18198226913239757
58	0x3f88ea93fa687fea	0.012166172103263723
59	0x3fe29adc82d703f7	0.5814039760081177
60	0x3fd81a06d592cc6f	0.3765885434797331
61	0xbfd1ce2751708283	-0.2782076163585218
62	0x3db7eba963e37084	2.1755616616397932e-11
63	0x3fa9dc593682444f	0.05050925054923338
64	0xbfc07a1be6d17a35	-0.12872647066520107
65	0xc26487cf75cfdec1	-705422929534.961
66	0xc161150c27ca8096	-8956001.243469518
67	0xbf916313c9b09a9a	-0.016979512391254482
68	0xbfa0609de24bcf40	-0.0319871271839518
69	0x3fb52d849765f622	0.08272579857108345
70	0xbfd8a37d5ad7d949	-0.38497861739542266
71	0xbfb2558a1f95c5fe	-0.07161772986525958
72	0xbfa9d288351ba19a	-0.050434357149984524
73	0x3f83a2feef7acbc8	0.009588233645763014
74	0x3fcaaf3e75d91f0b	0.20847302202513904
75	0xbf7ebf7e7308ef10	-0.007506841604989281
76	0xbf975e2734bb06ea	-0.022820103257578696
77	0x3fa7e7f81525c25a	0.046691658574563547
78	0x425192fa670c94b0	301921311794.32324
79	0xc1029802250d3304	-152320.26809158188
80	0x3fa3889cf7031e44	0.038151650574544976
81	0xbf910994b34f656a	-0.016638110584471212
82	0xbfc1be323a390430	-0.13861682742029435
83	0xbfb637f6bfd6bddc	-0.08679144080701157
84	0x3fbb168225431542	0.10581220063894128
85	0x3fb981cf39265bd0	0.09963698525676468
86	0xbfb99cffcd8dd55c	-0.10005186813744643
87	0x3fc79e58216f879c	0.18451978333092434
88	0x3f984149650a24c3	0.023686548988312916
89	0x3fc83651dc8de401	0.1891577078747844
90	0x3fc0ff6ae70fd357	0.13279472620311125
91	0xc2836a873e06c8d3	-2668532056281.103
92	0xc1579f1777a59f40	-6192221.869483769
93	0x3faeabf7ed822df0	0.05990576528810354
94	0x3f7d888d38c43148	0.007210303924022839
95	0xbfd04473c520331e	-0.2541779923492856
96	0x3fcfe1b060e110b2	0.24907498102596076
97	0x3fbed25376462638	0.12039682042645772
98	0x3fc7bd15ecec2d57	0.18545793598637303
99	0xbfb865f9277c7cef	-0.09530598844547787
100	0x3fdb818b132bd598	0.4297816931933425
101	0x3fca6ed598ef58b6	0.20650739638830878
102	0x3f9662afa615b15e	0.021860832702644266
103	0x3f806510f8c16490	0.008005268660939785
104	0xc251c186b23e012c	-305045096696.0183
105	0x41610d92faa461e6	8940695.832566213
106	0x3f9ae56dbc3aeb5e	0.026265825856835227
107	0xbf962820439284b2	-0.021637443661010898
108	0xbfc0e56743bdf2c6	-0.132000835492269
109	0xbfaaef678da61350	-0.052607761422257426
110	0xbf9ade448eeec87e	-0.02623850939171079
111	0xbf927df082954d18	-0.018058546037832718
112	0x3f7e7a5b5a4ebb24	0.007440907332166433
113	0xbfb90465c8fb2baa	-0.09772335201993934
114	0xbfa17d599fa08dc5	-0.034159470306146335
115	0x3f8b8f1e335dedd2	0.013456569616883938
116	0xbfcb2737e98b459b	-0.21213435081021434
117	0xc23fb29f5fef1db0	-136140775407.11597
118	0x415401139d22abf8	5243982.455241196
119	0x3fc12d9b49f64a8b	0.1342043028967804
120	0x3f87beae07874654	0.011594161610364008
121	0xbff0f69848c0cbb9	-1.0602038232725433
122	0xbfd63f8095b95212	-0.347625871863131
123	0x3fa11e6ab48fa32c	0.03343518690218725
124	0xbfb75e604b2ac438	-0.0912838157189676
125	0x3fe91e5b9abc8e62	0.7849557897756763
126	0x401c2e79d0bad06f	7.045386563684686
127	0x3fc92dc0d08b897f	0.196708776310583
128	0x3f8a28c53ce7ca74	0.012773075982271488
129	0xbf6ca1e174198dd3	-0.0034951594723666517
130	0xc23b09d5b42ddb0e	-116129117229.85568
131	0x4139e28649cecb52	1696390.2883116794
132	0x3f989f081d0d5e38	0.024044157765585633
133	0xbf7ed918608de862	-0.007531256888677703
134	0xbfbdea004fc3a7f3	-0.11685182521219399
135	0x3fbf4d81ce508127	0.12227641379331954
136	0xbf73211155789108	-0.004670207701142688
137	0x3fb36c0119a527d1	0.07586676479436895
138	0x3fd10ac309ebe2e5	0.26628185242547736
139	0x3fb71b65bd6a88bc	0.09026180147569368
140	0xbfc7159e49ea269b	-0.18034723862756583
141	0xbf92b4c42c80074f	-0.018267693725653896
142	0xbf98500c320ca438	-0.02374285750844171
143	0x4246bfff6d23a1e2	195420936775.2647
144	0xc15e03fe6525fafe	-7868409.580443142
145	0x3f8f2195cdbb7424	0.015200777378988013
146	0xbf975f309e97d95c	-0.022824058227308583
147	0xbfc018f2baf8f38d	-0.12576135758891063
148	0xbfe4b805fd1bbd18	-0.647463793136839
149	0xbfb3336692fa8212	-0.07500306213706434
150	0xbfc11b8ba4542da5	-0.1336531212221931
151	0x3fd134c2957d118a	0.2688452205514059
152	0x3fcee883dcdbaeb2	0.24147079738701432
153	0x3fb28b033f094c4e	0.07243366517040892
154	0xbf918a51922ab818	-0.017129206224744647
155	0xbf964f325eabb8e2	-0.0217864866526093
156	0x42436121245d9969	166467881147.19852
157	0x41658457c31e6f82	11281086.09746528
158	0x3f99b49a53e24f64	0.025103007669329172
159	0xbf8a5c93858ffa50	-0.012871887696744327
160	0x3f7cbde8516d7ea6	0.007017047398079212
161	0xbfa5a7b6d057b414	-0.04229518216366315
162	0x3fa5038ad38bb981	0.04104265053125556
163	0x3fb6150112fedd68	0.08625799859770711
164	0xbf9162ed657a593a	-0.01697894031402678
165	0xbfd919b5010aa6e0	-0.3921940336391412
166	0xbfa3245e2ef64e15	-0.0373868400885408
167	0xbf472af5228d7109	-0.0007070252369021655
168	0xbf9cdc99438edc0c	-0.028185267208495943
169	0x4207c0a1d3f1cb3a	12752009854.224232
170	0x41440d81c02e6900	2628355.5014163256
171	0x3fa04f41f5edf5a0	0.03185468794888924
172	0xbf66a486381ee668	-0.0027639981717271674
173	0xbfefb81006b71a88	-0.9912185794026565
174	0xbfc5ffc8153df92a	-0.17186833417140096
175	0xbf9e5f27c64193be	-0.029659863925548306
176	0xbfe5267affa35790	-0.6609473221712836
177	0x3ff3f76da0b7328b	1.2479072835878096
178	0x4016d765e7c5f401	5.710349675614453
179	0xbf9213422e9fa932	-0.01765159043854076
180	0xbf4f6dba69e205c1	-0.000959125540035348
181	0xbf447b9c49fbee88	-0.0006250870828518754
182	0x42062fe03792b6e4	11911562994.339302
183	0xc1290f4f26d9a9d1	-821159.5758793895
184	0xbfb28657df0aed24	-0.07236241526964143
185	0x3f68b68289c46122	0.003016715009050001
186	0xbf9a78a1b7e9bdc4	-0.02585079846397577
187	0xbfc82dd32c996ede	-0.18889846494391
188	0x3f5f24d2348706e4	0.0019008686814320714
189	0xbfd953a4945938a6	-0.39573015677604884
190	0x3fb81411390bebe3	0.09405620234240035
191	0xbfa762ea3ae76286	-0.04567653626481154
192	0x3fa7dabc28ad114a	0.04659069057973626
193	0xbf546d21fcfd38ef	-0.0012467224041361987
194	0x3fa1e14307fe90e4	0.03492173645580168
195	0x4204e312ae7a3100	11213624783.273926
196	0xc14ed04334edc121	-4038790.413505689
197	0x3fc58c23bed6e946	0.1683392221292001
198	0xbf807247720bfb06	-0.00803047005456171
199	0xbfeb8d33925062ed	-0.8609865052886484
200	0xbfd63a9eae5ea27c	-0.3473278715924051
201	0x3f91e2725bab8ad9	0.017465388150308712
202	0x3fdab174005d0b5f	0.4170808795499194
203	0xbf67ed53fd07c040	-0.002920784034579099
204	0xc00089780c454680	-2.067123504509084
205	0x3fb2d6e2005b0526	0.07359135159187655
206	0x3f33efd1151b4798	0.0003042111830896476
207	0x3f721f9e385d5e84	0.004424684569890428
208	0xc1ebc33a45f4b6c0	-3726234159.6473083
209	0xc1763b54797b823a	-23311687.59265349
210	0xbfba251befa7cc34	-0.10212874031985636
211	0xbf7627614245e8a6	-0.005408649365899054
212	0x3f93260a7b039c60	0.01869980216806899
213	0xbfc1318e6d6cd3b4	-0.13432484000227662
214	0xbf902d56be8223aa	-0.015797953965861623
215	0xbfe5ce2a21668da0	-0.6814165737491074
216	0x3fcf413ddbba2fe4	0.24417851666328183
217	0x3fc01ed6edba9bee	0.12594114883287894
218	0x3facc727f87717d0	0.05620694072744892
219	0x3f901469fa045393	0.015702873120136806
220	0x3fa6e9c5b48fccf7	0.04475229100344252
221	0xc2436b440c4af24d	-166808000661.89297
222	0x41212b9ed4aa2638	562639.4153606361
223	0x3fa472140ff6e947	0.03993284888152231
224	0xbf916ca906fdff4d	-0.01701606850792752
225	0xbfd1f3d710f6a8c1	-0.28050781876175895
226	0x3f9bebd3c1b68304	0.027266796778010707
227	0xbfa3280642c7f83a	-0.03741473736953123
228	0x3face72d81c55478	0.05645124634853799
229	0xbfaccdcf0ea259c5	-0.05625769666328354
230	0x3fc7f09e8b1fe9b0	0.18703061860271708
231	0xbf585e4284027640	-0.00148731704397366
232	0xbf6fc590f7b33038	-0.003878386630821875
233	0x3f929abb37d5c49c	0.018168378146076067
234	0x4222526c5ee5da78	39346122610.9267
235	0x41485b3c3908413a	3192440.4455644162
236	0x3fb1db7cb502b42b	0.06975535792544522
237	0xbf9747cee92377ee	-0.022734864215514898
238	0xbfce44fd1880dbc8	-0.23648036667301953
239	0xbfc0029ecfe0baac	-0.1250799670246655
240	0x3f8c93778e62d1e2	0.013953146012092913
241	0x3fd00160c8881697	0.2500841100994448
242	0xbfc265dd628982be	-0.1437336665285524
243	0x3fddc492b491eb6d	0.4651228679064648
244	0x3fa4efe50acfba37	0.040892751283412236
245	0x3f8f0ece0c1b330a	0.015164956802800517
246	0xbfb22a4def23b454	-0.07095801437726951
247	0xc2433f97dcc57dfc	-165342591370.98425
248	0xc15d2a6ba9a250ce	-7645614.650531961
249	0x3fad259c7b143563	0.056927576088223096
250	0xbf98b57e0a635227	-0.02412983835604812
251	0xbfbcaea1e0385906	-0.112039677849996
252	0xbfca2e1d76457bd0	-0.20453232073756888
253	0x3fba8d0458fd1758	0.10371424839567334
254	0x3fcad82a76ec8a51	0.20972185904345733
255	0x3fa068f44944403a	0.032050737327268
