jupyter_notebooks/LDA_Model.pkl_05.npy (npy, 2248 bytes, 1 tensors)

array f8 [1, 271]
000000 69 41 6e e8 32 1e 87 bd eb 43 7a 6a ee eb c0 3d
       -2.6282082550780585e-12 3.078022325709086e-11
000010 41 63 3c b4 9f 04 33 3f 80 02 89 8a 41 17 15 bf
       0.0002901925947625291 -8.04551842827992e-05
000020 0b 80 c1 31 cd 3e e0 bf 00 06 6f 21 0d a4 5f bf
       -0.507666203669943 -0.0019312027195471648
000030 7c 9a 81 24 a9 0e 17 c0 db 48 01 9f b3 80 14 c0
       -5.7643171028236075 -5.12568520016995
000040 6a 84 cc 61 95 4b 59 3f cd a0 41 64 37 7a 0e c0
       0.001543899422536544 -3.8096759636428943
000050 7b a2 44 68 14 54 d0 3d 96 e4 46 5e e2 c7 9d 3f
       5.940250554211003e-11 0.029082810405928493
000060 7f 39 e3 46 a3 ad 8d bf 60 d2 46 79 41 45 77 c2
       -0.014491344071214439 -1599138665581.1484
000070 8e 57 56 95 63 a7 e9 3e 63 ca 66 dc 1c 39 94 3f
       1.2232715259224093e-05 0.019749117805711324
000080 24 07 9d 3a db a2 a0 3f ac d8 8e df 8a 9d ca 3f
       0.03249249544616209 0.20793281474988612
000090 12 78 e3 85 36 1f e4 3f 06 b2 30 c8 93 50 b7 bf
       0.6288101782809028 -0.09107326161819893
0000a0 39 c0 bf 29 6c 57 b6 3f 66 77 15 f7 e3 1c dc 3f
       0.08727146167052603 0.4392633355072263
0000b0 0c 71 80 8f 13 de 97 3f cd 77 57 f1 c6 06 d6 3d
       0.02330809176793118 8.013184242488565e-11
0000c0 7e ad 06 31 63 ec 76 3f 4a 5b 2c b6 68 2f 47 bf
       0.0055965304058348524 -0.0007075558936290108
0000d0 ea cf 19 dd d7 23 4a c2 24 9f fb 32 f3 12 35 3f
       -224540998195.62433 0.00032156407813353966
0000e0 f2 49 09 51 50 9e b1 bf d8 00 3c 1b 26 56 ae 3f
       -0.06882192591118733 0.05925101358843826
0000f0 20 f8 b5 9a 81 76 c8 bf 83 6e 69 17 e4 ba b2 3f
       -0.1911165242599404 0.07316423007562815
000100 d1 cc 0c 8d 80 8b 9e bf 42 f5 9e d5 92 3c b5 3f
       -0.029829033478745274 0.0829555293593858
000110 6a 0f 89 86 9c 50 d9 bf 72 1d 96 a6 73 0f cf 3f
       -0.395545131094187 0.24265905031300466
000120 50 18 7f 40 3c 87 94 bd 60 28 2f 10 6c 21 5d 3f
       -4.667586636431365e-12 0.0017779879860762224
000130 d1 59 24 ac 0b 68 36 bf 27 ad 1a 3f 3d 3b 32 c2
       -0.00034189496013095367 -78303280922.67638
000140 e3 dd 24 ba 43 59 15 3f 9a 04 fa c4 f5 bf a3 bf
       8.143878816190652e-05 -0.038573913855551825
000150 7a d5 b8 d6 a8 31 b8 3f 9c 46 2e 97 a0 b0 c4 3f
       0.09450774423824795 0.16164023763535773
000160 c6 1a ba 89 1b 5c d3 3f c9 09 b3 33 0c 38 a0 3f
       0.302496799944873 0.03167760974021722
000170 45 ca ba 04 26 2e c8 bf 8a cf 77 e5 f9 d9 e0 3f
       -0.18890834074916732 0.5266084176823693
000180 70 e2 3c d9 e1 1a ef bf f3 4c 9e b4 e1 bf d4 3d
       -0.9720315211225863 7.548637856682889e-11
000190 f8 f2 4f 9e 0a b7 05 bf 1f b7 7f 5d d7 66 53 bf
       -4.141808657462902e-05 -0.0011841872383188746
0001a0 82 8b c6 61 c8 9a ca 41 07 69 46 bd 4f 58 25 bf
       892702915.5511324 -0.00016284917240911459
0001b0 01 af b4 60 4f 76 b2 3f 6b 08 fe 7d 37 69 87 bf
       0.07211776839238483 -0.011431153805237146
0001c0 5a 3c 01 bf cc dd cc bf 0c 1c 89 ff ee f7 de 3f
       -0.22551879240424705 0.48388266520163437
0001d0 c4 2f 26 87 16 90 a0 3f 48 c3 47 f6 1d bc f8 3f
       0.032349304197026224 1.5459270115208756
0001e0 14 01 f2 b1 74 05 f0 3f a9 1b de 6f f6 ab e7 bf
       1.0013319922437107 -0.7397415337480783
0001f0 b2 4d 38 3b 45 cd cf 3d e7 96 08 5c cd 30 c1 3f
       5.784720567358551e-11 0.13430182451082048
000200 30 f3 87 89 e1 e7 d5 bf 1e 3e c9 4e 7b 4b 7b c2
       -0.3422778933598236 -1875687828627.8823
000210 a3 2d 32 45 de b5 76 c1 88 82 97 6c 9b 1d a7 bf
       -23813604.324750554 -0.04514775944312982
000220 7f 01 f4 57 fd c5 b5 bf 63 04 4f 3f c9 27 cc 3f
       -0.0850523318986287 0.21996417609446714
000230 e6 28 a3 32 d5 60 f0 bf 04 3e f0 89 f4 5f c8 bf
       -1.0236408212681964 -0.19042832122111986
000240 0d 12 0d de 46 2a c1 bf 95 d2 ce 22 47 1b 9a 3f
       -0.13410268633209946 0.02549468183470312
000250 7d 66 ba 1a fe bc e1 3f de ca 7a af 7c 70 94 bf
       0.5543203851731985 -0.019960354051998468
000260 0e 4f 9d 55 23 11 af bf 7c 9b 56 77 5c c8 bf 3f
       -0.06067762775515294 0.12415101922543487
000270 f4 29 66 4b 4a 5d 67 42 8a d1 d5 f4 52 b8 18 c1
       802795182897.311 -405012.7390969029
000280 ae 43 50 e2 33 f8 b9 3f 6c 0c 1f a6 9f a6 a6 bf
       0.10144352221710903 -0.0442399874005098
000290 bf d9 9b 66 bf 96 d7 bf 2c 2d 24 1e 05 8a cd bf
       -0.3685759069479921 -0.23077453586334096
0002a0 c3 5a c4 ed a2 01 d2 3f b6 17 35 0d 9e f4 d0 3f
       0.2813498804038483 0.26493026056084135
0002b0 4d 47 c6 04 b1 06 d1 bf 48 b8 bb 89 7a 66 df 3f
       -0.2660334154726243 0.49062980127826394
0002c0 a2 ef 2b b1 8d 1f b0 3f 9d f3 7e 6a 43 18 e0 3f
       0.06298146796683438 0.50296183395368
0002d0 7e 8d 01 9e 1c 99 d6 3f 79 13 fb 9d 34 d0 99 c2
       0.35309520178108034 -7095506665156.868
0002e0 62 30 7b ea 78 67 6f c1 8d e0 76 f9 81 63 c4 3f
       -16464839.32753772 0.15928673439862387
0002f0 e4 07 33 aa ca a1 93 3f d2 07 c7 a8 8b a0 e5 bf
       0.019171873701232203 -0.6758478447375131
000300 c1 1a 84 14 64 31 e5 3f 5f e4 3e 66 01 7d d4 3f
       0.6622791672424101 0.32012972817353175
000310 19 d8 d4 40 59 8f df 3f 47 4a 33 c2 f0 37 d0 bf
       0.49312430697625725 -0.2534143349159063
000320 ec f4 68 63 c9 48 f2 3f 55 b3 78 51 2d 92 e1 3f
       1.1427701838686586 0.5490938750495881
000330 cb 15 bc 7a d1 c2 ad 3f d5 26 2e bc e7 cb 95 3f
       0.058126970512642005 0.021285649166691584
000340 f4 3f 2b bd 2c 9b 67 c2 ee 39 d0 be ee ab 76 41
       -811101186393.9985 23772907.925836496
000350 14 78 dd e0 02 e1 b1 3f 25 ca 45 c5 f6 74 ad bf
       0.06983964910384116 -0.05753298910248742
000360 cf 9c 42 c7 86 76 d6 bf ea c0 0c 80 a4 e7 c1 bf
       -0.35098428210262694 -0.1398816704982047
000370 b0 b9 6c 4b 40 dc b1 bf 22 c0 5f 82 aa 95 a8 bf
       -0.06976701585219902 -0.04801686135749629
000380 91 97 fc 68 87 42 94 3f 71 3b 9e 52 40 a1 d0 bf
       0.01978503778732194 -0.259841995889409
000390 17 ff 7b 45 89 40 b7 bf b9 97 67 70 cf 51 a2 3f
       -0.09082849451442275 0.03578041312339004
0003a0 29 bd ad 86 be 0c e2 bf d4 2a f6 a3 1a 12 55 c2
       -0.5640556936686255 -361992196056.6692
0003b0 56 66 89 2c 5b 98 6a 41 c8 a2 70 df 84 d6 d6 3f
       13943513.39177243 0.35684320278464243
0003c0 94 2d 78 d1 77 91 9f 3f 19 1f ba d5 61 8d 06 c0
       0.030828354034424146 -2.819034261457898
0003d0 db 0c 65 ca 0a 94 ed bf 26 a8 a1 16 53 c2 b6 3f
       -0.9243215516111393 0.08890265753294155
0003e0 c3 d2 2d 3b 6f 11 cf bf a3 53 6f 0e 82 b2 00 40
       -0.24271955861663316 2.0871621253704276
0003f0 14 91 73 dd bd bb 32 40 5d 71 78 ee bd bc e0 3f
       18.73336586066678 0.5230397851587828
000400 a5 ed 35 53 9a 63 a1 3f b3 c8 8a aa 74 08 83 bf
       0.03396303430323692 -0.009293471769840833
000410 8e 86 fe 38 36 f9 51 c2 c5 c1 90 5c e8 34 51 41
       -308782097402.1024 4510625.446335261
000420 4f 43 08 92 de 5d b0 3f 64 3f d3 55 81 81 94 bf
       0.0639323336147417 -0.020025273192742957
000430 6c 84 51 f6 91 e2 d3 bf 3b be f1 7f e3 ce d4 3f
       -0.3107037454083812 0.32512748236237926
000440 52 f8 bf 95 8a 6e 89 bf 46 d2 7d f8 2a d2 c9 3f
       -0.012417872138026951 0.20172631390927814
000450 ba 6c d5 99 31 a8 e6 3f 6f 7a 15 46 63 b8 ce 3f
       0.708031464058329 0.24000206873002436
000460 07 ff 6f 60 b4 b0 de bf f8 c5 c2 9b 8e de a8 bf
       -0.47953519265864525 -0.048572975648664085
000470 d2 79 7f 9b 5d 29 b0 bf 0c 68 05 be df 3e 5e 42
       -0.063131189788215 519615477781.62573
000480 4f be 79 30 d9 f3 73 c1 6b 2f fe 2c b1 b1 a4 3f
       -20921747.029722508 0.04041818308095809
000490 6b 33 1c 32 84 12 af bf 4f a7 32 37 b5 66 d5 bf
       -0.06068814384170803 -0.3343937911073355
0004a0 bc de f5 6b 94 8b fb bf bc 02 6e 24 ea 86 c9 bf
       -1.7215770928577703 -0.1994297674064195
0004b0 1c 72 90 d6 81 be d6 bf 86 32 d1 89 07 e0 e6 3f
       -0.3553776355127256 0.714847344564604
0004c0 fc ad c2 61 c1 8b e4 3f 54 67 70 eb 0b a7 c8 3f
       0.6420599851020934 0.19259785648392358
0004d0 b2 9a 1b 11 c7 51 a7 bf 1c ba 65 58 e8 a8 ad bf
       -0.045545788610799845 -0.057929287710852345
0004e0 28 79 cf c2 b5 c3 59 42 c2 a9 52 c5 37 9b 7c 41
       442630605629.89307 29995900.332681425
0004f0 32 c3 0f b8 61 16 b1 3f 79 fd 6d 47 0a 86 a1 bf
       0.06674776786509254 -0.034225770205916946
000500 ff d7 a1 13 16 1b 93 3f b8 97 1c 42 3e ca bc bf
       0.018658013294462702 -0.11246098627142842
000510 57 8e 92 fe fa ef bb 3f 45 e9 d7 b9 8a 5b cd 3f
       0.10913056101940675 0.22935613703141136
000520 c7 86 34 62 68 1d a7 bf 0e 38 41 9e 6a af f0 bf
       -0.045146238315522384 -1.042826288397467
000530 82 63 20 cb ed 72 b9 bf 32 57 9e 1b 13 cd 5e bf
       -0.09940992554801478 -0.0018799482918203212
000540 90 55 9e e4 7c 2f b3 bf 1f 94 02 4a 10 94 1f 42
       -0.07494335729128054 33907020416.64465
000550 cf e7 dd c0 e1 a8 5a 41 40 c0 5c 3f e9 ae b5 3f
       6988679.013544037 0.08470018193179474
000560 f5 a8 6c 40 59 1a 7e bf d4 99 cf 63 b8 15 05 c0
       -0.0073493467705623055 -2.6356056020478977
000570 98 87 b4 af 53 3f dd bf 55 7d 22 73 72 30 b4 bf
       -0.4569901672240291 -0.0788642436113965
000580 c8 b5 f7 11 6e 1e fc bf 76 13 15 62 87 8b 0a 40
       -1.757429189859396 3.318129316585721
000590 a9 8e 0a f3 fb 5d 2e 40 2a 1d ec 0a d6 07 a8 bf
       15.183562846220712 -0.046934784730235116
0005a0 c2 b0 40 ab 4e e4 64 bf 42 6c 35 1f 43 3b 5b bf
       -0.002550271654419318 -0.0016620784270660193
0005b0 f4 da 42 64 44 7f 1d 42 fc 9c 8a 2e 81 a8 40 c1
       31672310032.71382 -2183426.36360514
0005c0 a4 6b 0f b2 d6 a0 c8 bf 57 8b c0 ee 79 6d 80 3f
       -0.19240840620372268 0.008021309469830191
0005d0 05 de 3f 90 b0 98 b1 bf e6 1a 2b d1 9d 12 e0 bf
       -0.06873610994068009 -0.5022725186653048
0005e0 f8 1f ab d8 d7 b3 74 3f e1 df b8 bd ed d5 f0 bf
       0.0050543242929919005 -1.0522286807081331
0005f0 28 2f e3 8f 7e 01 d0 3f da 91 e3 ff 77 17 bf bf
       0.2500912099028363 -0.12145185467995337
000600 ce f3 3c 4c c4 b6 bf 3f c8 9a ad ad 03 28 6b bf
       0.12388254987031574 -0.00331497877543838
000610 12 64 08 dc 5d c5 b7 3f 89 dd 56 2f d0 c4 1b 42
       0.0928553259076497 29816523733.716343
000620 f9 8e 66 3f a2 7b 64 c1 88 cc ba 62 95 a5 dc 3f
       -10738961.981269347 0.44760641709871907
000630 cc 81 6b a8 78 dd 95 bf c4 82 84 4c 89 50 02 c0
       -0.021352658538377686 -2.2893243768633926
000640 6a 2a 5c 12 8d 8d ed bf b4 48 30 20 f1 c6 a7 3f
       -0.9235291823000129 0.04643968122413025
000650 16 1a 9e 0a 76 be f1 3f b4 29 51 62 7c cf 7f bf
       1.1089992918729243 -0.007766233325194372
000660 b4 ad bd 3c 4d fc 15 c0 30 f7 22 09 ea 0b c9 3f
       -5.496388386799868 0.19567609258768348
000670 07 a7 ff d5 68 81 4a 3f 77 bf 60 8f 44 18 88 3f
       0.0008088838476371937 0.01176503717951481
000680 94 9a 2f 1a 73 74 02 c2 ee 3d 10 c3 7e 8e 8d c1
       -9907888965.950478 -61984728.38293062
000690 52 5a a5 43 2b 61 d1 bf 97 d0 69 d5 f8 73 8d bf
       -0.2715557251553139 -0.014381355297907112
0006a0 fa 46 6d 34 27 75 a9 3f 5b f0 a2 28 c5 db d6 bf
       0.049721932554019646 -0.3571637055245042
0006b0 4b 40 46 1b d1 81 a5 bf 10 16 ec b9 5c fd fc bf
       -0.04200604875507049 -1.8118560087763207
0006c0 52 3e 43 41 bc c6 e4 3f 92 e6 ce 54 8a 6e d5 3f
       0.6492596888219373 0.3348718479352125
0006d0 38 b6 71 f2 3b 21 c3 3f cc 5b 07 05 ae 60 a5 3f
       0.14945172632308057 0.041753233064518364
0006e0 5f 15 ac 8b 69 76 be 3f fa e2 4c a1 2f d1 59 c2
       0.1189943281170449 -443534968115.5465
0006f0 7f 01 9b e3 e0 d3 36 41 3b f8 3e e5 96 2e bb 3f
       1496032.8890839515 0.10617964836907927
000700 29 82 6b f3 58 2a a7 bf 11 54 ad e6 10 de e7 bf
       -0.045244960512495 -0.7458576684390456
000710 f9 e8 b0 0d 70 8f b2 3f b2 7c 8e 49 ca 77 b9 bf
       0.07250118574384946 -0.09948410316291037
000720 74 8f c8 2a 85 36 c3 3f e2 2c 01 0e a8 25 c3 bf
       0.1501013239768515 -0.14958668407266545
000730 68 4b c3 8a dc d3 df 3f fe a9 ca 23 d0 32 70 bf
       0.4973059992891451 -0.003954709097039542
000740 a0 75 4e 5a b2 1e 85 bf 9b 18 23 b3 f1 bb a8 3f
       -0.010312455540595178 0.04830889999134166
000750 0c bb cf f1 cf 5b 38 42 7f c9 f4 6f cd 30 60 41
       104619569615.73065 8488555.498631237
000760 5a cf f6 75 b0 bd c7 3f df e2 9e 54 6e f3 ae bf
       0.18547635803190127 -0.060450980977696515
000770 c6 2c 13 94 0d 1f e4 bf aa 4f e1 07 06 49 d5 bf
       -0.6287906543815545 -0.33258200425665996
000780 d0 a6 33 d9 df fe a2 3f 6e 4a 02 38 5f 47 e5 3f
       0.037100787414443226 0.664962396042325
000790 2d 96 e3 c5 a8 75 d8 bf cc 4a 7d b2 b0 c9 f3 3f
       -0.3821813519010416 1.2367407772296017
0007a0 24 fa 74 02 dc d5 bb 3f 24 d2 17 46 35 a5 a4 3f
       0.10873198566421444 0.0403229377806478
0007b0 8f 3a 57 a1 79 26 c8 bf b6 09 27 d3 1f 97 59 c2
       -0.18867416742292106 -439638510748.15173
0007c0 a6 dd 5f 15 38 63 73 c1 e1 01 51 ab 05 60 c3 3f
       -20329345.33590474 0.15136786332187938
0007d0 6c 27 11 c5 cc 6c b0 bf 76 7b 7a a7 ee 10 d3 bf
       -0.06416015444952244 -0.29790846209828403
0007e0 b9 2e 2c d6 27 67 e1 bf cb 0c aa 96 3d a6 d1 3f
       -0.5438422377642019 0.2757715197878496
0007f0 0d 21 0d e9 31 d8 e1 3f 69 37 ba fb 12 d1 b5 3f
       0.5576409866125985 0.08522146840752289
